…
um=0.35, warmup_bias_lr=0.045, box=0.028, cls=0.25, cls_pw=0.625, obj=0.3, obj_pw=0.85, iou_t=0.2, anchor_t=3.0, fl_gamma=0.0, hsv_h=0.013, hsv_s=0.73, hsv_v=0.42, degrees=0.1, translate=0.2, scale=0.45, shear=0.18, perspective=0.0, flipud=0.0, fliplr=0.5, mosaic=1.0, mixup=0.18\n","\u001b[34m\u001b[1mwandb: \u001b[0mInstall Weights & Biases for YOLOv5 logging with 'pip install wandb' (recommended)\n","Overriding model.yaml nc=80 with nc=6\n","\n","                 from  n    params  module                                  arguments                     \n","  0                -1  1      7040  models.common.Focus                     [3, 64, 3]                    \n","  1                -1  1     73984  models.common.Conv                      [64, 128, 3, 2]               \n","  2                -1  1    156928  models.common.C3                        [128, 128, 3]                 \n","  3                -1  1    295424  models.common.Conv                      [128, 256, 3, 2]              \n","  4                -1  1   1611264  models.common.C3                        [256, 256, 9]                 \n","  5                -1  1   1180672  models.common.Conv                      [256, 512, 3, 2]              \n","  6                -1  1   6433792  models.common.C3                        [512, 512, 9]                 \n","  7                -1  1   4720640  models.common.Conv                      [512, 1024, 3, 2]             \n","  8                -1  1   2624512  models.common.SPP                       [1024, 1024, [5, 9, 13]]      \n","  9                -1  1   9971712  models.common.C3                        [1024, 1024, 3, False]        \n"," 10                -1  1    525312  models.common.Conv                      [1024, 512, 1, 1]             \n"," 11                -1  1         0  torch.nn.modules.upsampling.Upsample    [None, 2, 'nearest']          \n"," 12           [-1, 6]  1         0  models.common.Concat                    [1]                           \n"," 13                -1  1   2757632  models.common.C3                        [1024, 512, 3, False]         \n"," 14                -1  1    131584  models.common.Conv                      [512, 256, 1, 1]              \n"," 15                -1  1         0  torch.nn.modules.upsampling.Upsample    [None, 2, 'nearest']          \n"," 16           [-1, 4]  1         0  models.common.Concat                    [1]                           \n"," 17                -1  1    690688  models.common.C3                        [512, 256, 3, False]          \n"," 18                -1  1    590336  models.common.Conv                      [256, 256, 3, 2]              \n"," 19          [-1, 14]  1         0  models.common.Concat                    [1]                           \n"," 20                -1  1   2495488  models.common.C3                        [512, 512, 3, False]          \n"," 21                -1  1   2360320  models.common.Conv                      [512, 512, 3, 2]              \n"," 22          [-1, 10]  1         0  models.common.Concat                    [1]                           \n"," 23                -1  1   9971712  models.common.C3                        [1024, 1024, 3, False]        \n"," 24      [17, 20, 23]  1     59235  models.yolo.Detect                      [6, [[10, 13, 16, 30, 33, 23], [30, 61, 62, 45, 59, 119], [116, 90, 156, 198, 373, 326]], [256, 512, 1024]]\n","Model Summary: 499 layers, 46658275 parameters, 46658275 gradients, 114.3 GFLOPS\n","\n","Transferred 642/650 items from yolov5l.pt\n","Scaled weight_decay = 0.0003\n","Optimizer
…
