…
g: source code of class 'models.yolo.Detect' has changed. you can retrieve the original source code by accessing the object's source attribute or set `torch.nn.Module.dump_patches = True` and use the patch tool to revert the changes.\n","  warnings.warn(msg, SourceChangeWarning)\n","\u001b[34m\u001b[1mwandb: \u001b[0mInstall Weights & Biases for YOLOv5 logging with 'pip install wandb' (recommended)\n","Overriding model.yaml nc=80 with nc=6\n","\n","                 from  n    params  module                                  arguments                     \n","  0                -1  1       928  models.common.Conv                      [3, 32, 3, 1]                 \n","  1                -1  1     18560  models.common.Conv                      [32, 64, 3, 2]                \n","  2                -1  1     20672  models.common.Bottleneck                [64, 64]                      \n","  3                -1  1     73984  models.common.Conv                      [64, 128, 3, 2]               \n","  4                -1  1    119936  models.common.BottleneckCSP             [128, 128, 2]                 \n","  5                -1  1    295424  models.common.Conv                      [128, 256, 3, 2]              \n","  6                -1  1   1463552  models.common.BottleneckCSP             [256, 256, 8]                 \n","  7                -1  1   1180672  models.common.Conv                      [256, 512, 3, 2]              \n","  8                -1  1   5843456  models.common.BottleneckCSP             [512, 512, 8]                 \n","  9                -1  1   4720640  models.common.Conv                      [512, 1024, 3, 2]             \n"," 10                -1  1  12858368  models.common.BottleneckCSP             [1024, 1024, 4]               \n"," 11                -1  1   7610368  models.common.SPPCSP                    [1024, 512, 1]                \n"," 12                -1  1    131584  models.common.Conv                      [512, 256, 1, 1]              \n"," 13                -1  1         0  torch.nn.modules.upsampling.Upsample    [None, 2, 'nearest']          \n"," 14                 8  1    131584  models.common.Conv                      [512, 256, 1, 1]              \n"," 15          [-1, -2]  1         0  models.common.Concat                    [1]                           \n"," 16                -1  1   1642496  models.common.BottleneckCSP2            [512, 256, 2]                 \n"," 17                -1  1     33024  models.common.Conv                      [256, 128, 1, 1]              \n"," 18                -1  1         0  torch.nn.modules.upsampling.Upsample    [None, 2, 'nearest']          \n"," 19                 6  1     33024  models.common.Conv                      [256, 128, 1, 1]              \n"," 20          [-1, -2]  1         0  models.common.Concat                    [1]                           \n"," 21                -1  1    411648  models.common.BottleneckCSP2            [256, 128, 2]                 \n"," 22                -1  1    295424  models.common.Conv                      [128, 256, 3, 1]              \n"," 23                -2  1    295424  models.common.Conv                      [128, 256, 3, 2]              \n"," 24          [-1, 16]  1         0  models.common.Concat                    [1]                           \n"," 25                -1  1   1642496  models.common.BottleneckCSP2            [512, 256, 2]                 \n"," 26                -1  1   1180672  models.common.Conv                      [256, 512, 3, 1]              \n"," 27                -2  1   1180672  models.common.Conv                      [256, 512, 3, 2]              \n"," 28          [-1, 11]  1         0  models.common.Concat                    [1]                           \n"," 29                -1  1   6561792  models.common.BottleneckCSP2            [1024, 512, 2]                \n"," 30                -1  1   4720640  models.common.Conv                      [512, 1024, 3, 1]             \n"," 31      [22, 26, 30]  1     59235  models.yolo.Detect                      [6, [[12, 16, 19, 36, 40, 28], [36, 75, 76, 55, 72, 146], [142, 110, 192, 243, 459, 401]], [256, 512, 1024]]\n","Model Summary: 492 layers, 52526275 parameters, 52526275 gradients, 119.4 GFLOPS\n","\n","Transferred 652/660 items from yolov4l-mish.pt\n","Scaled weight_decay = 0.0003\n","Opt
…
